…
================================================================================
Layer (type:depth-idx)                   Kernel Shape              Input Shape               Output Shape              Param #                   Param %                   Mult-Adds                 Trainable
=======================================================================================================================================================================================================================
ResNet                                   --                        [1, 3, 224, 224]          [1, 1000]                 --                             --                   --                        True
├─Conv2d: 1-1                            [7, 7]                    [1, 3, 224, 224]          [1, 64, 112, 112]         9,408                       0.08%                   118,013,952               True
├─BatchNorm2d: 1-2                       --                        [1, 64, 112, 112]         [1, 64, 112, 112]         128                         0.00%                   128                       True
├─ReLU: 1-3                              --                        [1, 64, 112, 112]         [1, 64, 112, 112]         --                             --                   --                        --
├─MaxPool2d: 1-4                         3                         [1, 64, 112, 112]         [1, 64, 56, 56]           --                             --                   --                        --
├─Sequential: 1-5                        --                        [1, 64, 56, 56]           [1, 64, 56, 56]           --                             --                   --                        True
│    └─BasicBlock: 2-1                   --                        [1, 64, 56, 56]           [1, 64, 56, 56]           --                             --                   --                        True
│    │    └─Conv2d: 3-1                  [3, 3]                    [1, 64, 56, 56]           [1, 64, 56, 56]           36,864                      0.32%                   115,605,504               True
│    │    └─BatchNorm2d: 3-2             --                        [1, 64, 56, 56]           [1, 64, 56, 56]           128                         0.00%                   128                       True
│    │    └─ReLU: 3-3                    --                        [1, 64, 56, 56]           [1, 64, 56, 56]           --                             --                   --                        --
│    │    └─Conv2d: 3-4                  [3, 3]                    [1, 64, 56, 56]           [1, 64, 56, 56]           36,864                      0.32%                   115,605,504               True
│    │    └─BatchNorm2d: 3-5             --                        [1, 64, 56, 56]           [1, 64, 56, 56]           128                         0.00%                   128                       True
│    │    └─ReLU: 3-6                    --                        [1, 64, 56, 56]           [1, 64, 56, 56]           --                        (recursive)               --                        --
│    └─BasicBlock: 2-2                   --                        [1, 64, 56, 56]           [1, 64, 56, 56]           --                             --                   --                        True
│    │    └─Conv2d: 3-7                  [3, 3]                    [1, 64, 56, 56]           [1, 64, 56, 56]           36,864                      0.32%                   115,605,504               True
│    │    └─BatchNorm2d: 3-8             --                        [1, 64, 56, 56]           [1, 64, 56, 56]           128                         0.00%                   128                       True
│    │    └─ReLU: 3-9                    --                        [1, 64, 56, 56]           [1, 64, 56, 56]           --                             --                   --                        --
│    │    └─Conv2d: 3-10                 [3, 3]                    [1, 64, 56, 56]           [1, 64, 56, 56]           36,864                      0.32%                   115,605,504               True
│    │    └─BatchNorm2d: 3-11            --                        [1, 64, 56, 56]           [1, 64, 56, 56]           128                         0.00%                   128                       True
│    │    └─ReLU: 3-12                   --                        [1, 64, 56, 56]           [1, 64, 56, 56]           --                        (recursive)               --                        --
├─Sequential: 1-6                        --                        [1, 64, 56, 56]           [1, 128, 28, 28]          --                             --                   --                        True
│    └─BasicBlock: 2-3                   --                        [1, 64, 56, 56]           [1, 128, 28, 28]          --                             --                   --                        True
│    │    └─Conv2d: 3-13                 [3, 3]                    [1, 64, 56, 56]           [1, 128, 28, 28]          73,728                      0.63%                   57,802,752                True
│    │    └─BatchNorm2d: 3-14            --                        [1, 128, 28, 28]          [1, 128, 28, 28]          256                         0.00%                   256                       True
│    │    └─ReLU: 3-15                   --                        [1, 128, 28, 28]          [1, 128, 28, 28]          --                             --                   --                        --
│    │    └─Conv2d: 3-16                 [3, 3]                    [1, 128, 28, 28]          [1, 128, 28, 28]          147,456                     1.26%                   115,605,504               True
│    │    └─BatchNorm2d: 3-17            --                        [1, 128, 28, 28]          [1, 128, 28, 28]          256                         0.00%                   256                       True
│    │    └─Sequential: 3-18             --                        [1, 64, 56, 56]           [1, 128, 28, 28]          --                             --                   --                        True
│    │    │    └─Conv2d: 4-1             [1, 1]                    [1, 64, 56, 56]           [1, 128, 28, 28]          8,192                       0.07%                   6,422,528                 True
│    │    │    └─BatchNorm2d: 4-2        --                        [1, 128, 28, 28]          [1, 128, 28, 28]          256                         0.00%                   256                       True
│    │    └─ReLU: 3-19                   --                        [1, 128, 28, 28]          [1, 128, 28, 28]          --                        (recursive)               --                        --
│    └─BasicBlock: 2-4                   --                        [1, 128, 28, 28]          [1, 128, 28, 28]          --                             --                   --                        True
│    │    └─Conv2d: 3-20                 [3, 3]                    [1, 128, 28, 28]          [1, 128, 28, 28]          147,456                     1.26%                   115,605,504               True
│    │    └─BatchNorm2d: 3-21            --                        [1, 128, 28, 28]          [1, 128, 28, 28]          256                         0.00%                   256                       True
│    │    └─ReLU: 3-22                   --                        [1, 128, 28, 28]          [1, 128, 28, 28]          --                             --                   --                        --
│    │    └─Conv2d: 3-23                 [3, 3]                    [1, 128, 28, 28]          [1, 128, 28, 28]          147,456                     1.26%                   115,605,504               True
│    │    └─BatchNorm2d: 3-24            --                        [1, 128, 28, 28]          [1, 128, 28, 28]          256                         0.00%                   256                       True
│    │    └─ReLU: 3-25                   --                        [1, 128, 28, 28]          [1, 128, 28, 28]          --                        (recursive)               --                        --
├─Sequential: 1-7                        --                        [1, 128, 28, 28]          [1, 256, 14, 14]          --                             --                   --                        True
│    └─BasicBlock: 2-5                   --                        [1, 128, 28, 28]          [1, 256, 14, 14]          --                             --                   --                        True
│    │    └─Conv2d: 3-26                 [3, 3]                    [1, 128, 28, 28]          [1, 256, 14, 14]          294,912                     2.52%                   57,802,752                True
│    │    └─BatchNorm2d: 3-27            --                        [1, 256, 14, 14]          [1, 256, 14, 14]          512                         0.00%                   512                       True
│    │    └─ReLU: 3-28                   --                        [1, 256, 14, 14]          [1, 256, 14, 14]          --                             --                   --                        --
│    │    └─Conv2d: 3-29                 [3, 3]                    [1, 256, 14, 14]          [1, 256, 14, 14]          589,824                     5.05%                   115,605,504               True
│    │    └─BatchNorm2d: 3-30            --                        [1, 256, 14, 14]          [1, 256, 14, 14]          512                         0.00%                   512                       True
│    │    └─Sequential: 3-31             --                        [1, 128, 28, 28]          [1, 256, 14, 14]          --                             --                   --                        True
│    │    │    └─Conv2d: 4-3             [1, 1]                    [1, 128, 28, 28]          [1, 256, 14, 14]          32,768                      0.28%                   6,422,528                 True
│    │    │    └─BatchNorm2d: 4-4        --                        [1, 256, 14, 14]          [1, 256, 14, 14]          512                         0.00%                   512                       True
│    │    └─ReLU: 3-32                   --                        [1, 256, 14, 14]          [1, 256, 14, 14]          --                        (recursive)               --                        --
│    └─BasicBlock: 2-6                   --                        [1, 256, 14, 14]          [1, 256, 14, 14]          --                             --                   --                        True
│    │    └─Conv2d: 3-33                 [3, 3]                    [1, 256, 14, 14]          [1, 256, 14, 14]          589,824                     5.05%                   115,605,504               True
│    │    └─BatchNorm2d: 3-34            --                        [1, 256, 14, 14]          [1, 256, 14, 14]          512                         0.00%                   512                       True
│    │    └─ReLU: 3-35                   --                        [1, 256, 14, 14]          [1, 256, 14, 14]          --                             --                   --                        --
│    │    └─Conv2d: 3-36                 [3, 3]                    [1, 256, 14, 14]          [1, 256, 14, 14]          589,824                     5.05%                   115,605,504               True
│    │    └─BatchNorm2d: 3-37            --                        [1, 256, 14, 14]          [1, 256, 14, 14]          512                         0.00%                   512                       True
│    │    └─ReLU: 3-38                   --                        [1, 256, 14, 14]          [1, 256, 14, 14]          --                        (recursive)               --                        --
├─Sequential: 1-8                        --                        [1, 256, 14, 14]          [1, 512, 7, 7]            --                             --                   --                        True
│    └─BasicBlock: 2-7                   --                        [1, 256, 14, 14]          [1, 512, 7, 7]            --                             --                   --                        True
│    │    └─Conv2d: 3-39                 [3, 3]                    [1, 256, 14, 14]          [1, 512, 7, 7]            1,179,648                  10.09%                   57,802,752                True
│    │    └─BatchNorm2d: 3-40            --                        [1, 512, 7, 7]            [1, 512, 7, 7]            1,024                       0.01%                   1,024                     True
│    │    └─ReLU: 3-41                   --                        [1, 512, 7, 7]            [1, 512, 7, 7]            --                             --                   --                        --
│    │    └─Conv2d: 3-42                 [3, 3]                    [1, 512, 7, 7]            [1, 512, 7, 7]            2,359,296                  20.18%                   115,605,504               True
│    │    └─BatchNorm2d: 3-43            --                        [1, 512, 7, 7]            [1, 512, 7, 7]            1,024                       0.01%                   1,024                     True
│    │    └─Sequential: 3-44             --                        [1, 256, 14, 14]          [1, 512, 7, 7]            --                             --                   --                        True
│    │    │    └─Conv2d: 4-5             [1, 1]                    [1, 256, 14, 14]          [1, 512, 7, 7]            131,072                     1.12%                   6,422,528                 True
│    │    │    └─BatchNorm2d: 4-6        --                        [1, 512, 7, 7]            [1, 512, 7, 7]            1,024                       0.01%                   1,024                     True
│    │    └─ReLU: 3-45                   --                        [1, 512, 7, 7]            [1, 512, 7, 7]            --                        (recursive)               --                        --
│    └─BasicBlock: 2-8                   --                        [1, 512, 7, 7]            [1, 512, 7, 7]            --                             --                   --                        True
│    │    └─Conv2d: 3-46                 [3, 3]                    [1, 512, 7, 7]            [1, 512, 7, 7]            2,359,296                  20.18%                   115,605,504               True
│    │    └─BatchNorm2d: 3-47            --                        [1, 512, 7, 7]            [1, 512, 7, 7]            1,024                       0.01%                   1,024                     True
│    │    └─ReLU: 3-48                   --                        [1, 512, 7, 7]            [1, 512, 7, 7]            --                             --                   --                        --
│    │    └─Conv2d: 3-49                 [3, 3]                    [1, 512, 7, 7]            [1, 512, 7, 7]            2,359,296                  20.18%                   115,605,504               True
│    │    └─BatchNorm2d: 3-50            --                        [1, 512, 7, 7]            [1, 512, 7, 7]            1,024                       0.01%                   1,024                     True
│    │    └─ReLU: 3-51                   --                        [1, 512, 7, 7]            [1, 512, 7, 7]            --                        (recursive)               --                        --
├─AdaptiveAvgPool2d: 1-9                 --                        [1, 512, 7, 7]            [1, 512, 1, 1]            --                             --                   --                        --
├─Linear: 1-10                           --                        [1, 512]                  [1, 1000]                 513,000                     4.39%                   513,000                   True
=======================================================================================================================================================================================================================
Total params: 11,689,512
Trainable params: 11,689,512
Non-trainable params: 0
Total mult-adds (G): 1.81
…
